…
U 139 | F 013900 | FPS 0292 | D 54 | rR:μσmM 0.15 0.21 0.00 0.45 | ARPS: 0.001 | ADR: 0.009 | F:μσmM 100.0 127.3 9.0 280.0 | H 0.756 | V 0.154 | pL -0.207 | vL 0.094 | ∇ 0.710 | dLtrain 0.000 | dLtest 0.000 | dtop1Acctrain 0.000 | dtop1Acctest 0.000
U 140 | F 014000 | FPS 0306 | D 54 | rR:μσmM 0.00 0.00 0.00 0.00 | ARPS: 0.000 | ADR: 0.000 | F:μσmM 49.0 0.0 49.0 49.0 | H 0.707 | V 0.132 | pL 0.045 | vL 0.002 | ∇ 0.088 | dLtrain 0.000 | dLtest 0.000 | dtop1Acctrain 0.000 | dtop1Acctest 0.000
Status saved

TRAIN AGENT


ACModel(
  (env_model): MinigridEnvModel(
    (image_conv): Sequential(
      (0): Linear(in_features=147, out_features=64, bias=True)
      (1): ReLU()
      (2): Linear(in_features=64, out_features=64, bias=True)
      (3): ReLU()
      (4): Linear(in_features=64, out_features=64, bias=True)
    )
  )
  (actor): PolicyNetwork(
    (enc_): Sequential(
      (0): Sequential(
        (0): Linear(in_features=64, out_features=128, bias=True)
        (1): ReLU()
      )
      (1): Sequential(
        (0): Linear(in_features=128, out_features=128, bias=True)
        (1): ReLU()
      )
    )
    (discrete_): Sequential(
      (0): Linear(in_features=128, out_features=3, bias=True)
    )
  )
  (critic): Sequential(
    (0): Linear(in_features=64, out_features=128, bias=True)
    (1): ReLU()
    (2): Linear(in_features=128, out_features=128, bias=True)
    (3): ReLU()
    (4): Linear(in_features=128, out_features=1, bias=True)
  )
)

VISUALIZER

ACModel(
  (env_model): MinigridEnvModel(
    (image_conv): Sequential(
      (0): Linear(in_features=147, out_features=64, bias=True)
      (1): ReLU()
      (2): Linear(in_features=64, out_features=64, bias=True)
      (3): ReLU()
      (4): Linear(in_features=64, out_features=64, bias=True)
    )
  )
  (actor): PolicyNetwork(
    (enc_): Sequential(
      (0): Sequential(
        (0): Linear(in_features=64, out_features=64, bias=True)
        (1): ReLU()
      )
      (1): Sequential(
        (0): Linear(in_features=64, out_features=64, bias=True)
        (1): ReLU()
      )
    )
    (discrete_): Sequential(
      (0): Linear(in_features=64, out_features=3, bias=True)
    )
  )
  (critic): Sequential(
    (0): Linear(in_features=64, out_features=64, bias=True)
    (1): ReLU()
    (2): Linear(in_features=64, out_features=64, bias=True)
    (3): ReLU()
    (4): Linear(in_features=64, out_features=1, bias=True)
  )
)